…
hear=0.0, perspective=0.0, flipud=0.0, fliplr=0.5, mosaic=1.0, mixup=0.0, copy_paste=0.0, cfg=None, v5loader=False, tracker=botsort.yaml, save_dir=/content/drive/MyDrive/NOVA_Deep/Processing/tiles_training/NOVA_YOLOv8_Full_YOLOm_b643\n","Downloading https://ultralytics.com/assets/Arial.ttf to /root/.config/Ultralytics/Arial.ttf...\n","100% 755k/755k [00:00\u003c00:00, 80.0MB/s]\n","Overriding model.yaml nc=80 with nc=1\n","\n","                   from  n    params  module                                       arguments                     \n","  0                  -1  1      1392  ultralytics.nn.modules.conv.Conv             [3, 48, 3, 2]                 \n","  1                  -1  1     41664  ultralytics.nn.modules.conv.Conv             [48, 96, 3, 2]                \n","  2                  -1  2    111360  ultralytics.nn.modules.block.C2f             [96, 96, 2, True]             \n","  3                  -1  1    166272  ultralytics.nn.modules.conv.Conv             [96, 192, 3, 2]               \n","  4                  -1  4    813312  ultralytics.nn.modules.block.C2f             [192, 192, 4, True]           \n","  5                  -1  1    664320  ultralytics.nn.modules.conv.Conv             [192, 384, 3, 2]              \n","  6                  -1  4   3248640  ultralytics.nn.modules.block.C2f             [384, 384, 4, True]           \n","  7                  -1  1   1991808  ultralytics.nn.modules.conv.Conv             [384, 576, 3, 2]              \n","  8                  -1  2   3985920  ultralytics.nn.modules.block.C2f             [576, 576, 2, True]           \n","  9                  -1  1    831168  ultralytics.nn.modules.block.SPPF            [576, 576, 5]                 \n"," 10                  -1  1         0  torch.nn.modules.upsampling.Upsample         [None, 2, 'nearest']          \n"," 11             [-1, 6]  1         0  ultralytics.nn.modules.conv.Concat           [1]                           \n"," 12                  -1  2   1993728  ultralytics.nn.modules.block.C2f             [960, 384, 2]                 \n"," 13                  -1  1         0  torch.nn.modules.upsampling.Upsample         [None, 2, 'nearest']          \n"," 14             [-1, 4]  1         0  ultralytics.nn.modules.conv.Concat           [1]                           \n"," 15                  -1  2    517632  ultralytics.nn.modules.block.C2f             [576, 192, 2]                 \n"," 16                  -1  1    332160  ultralytics.nn.modules.conv.Conv             [192, 192, 3, 2]              \n"," 17            [-1, 12]  1         0  ultralytics.nn.modules.conv.Concat           [1]                           \n"," 18                  -1  2   1846272  ultralytics.nn.modules.block.C2f             [576, 384, 2]                 \n"," 19                  -1  1   1327872  ultralytics.nn.modules.conv.Conv             [384, 384, 3, 2]              \n"," 20             [-1, 9]  1         0  ultralytics.nn.modules.conv.Concat           [1]                           \n"," 21                  -1  2   4207104  ultralytics.nn.modules.block.C2f             [960, 576, 2]                 \n"," 22        [15, 18, 21]  1   3776275  ultralytics.nn.modules.head.Detect           [1, [192, 384, 576]]          \n","Model summary: 295 layers, 25856899 parameters, 25856883 gradients\n","\n","Transferred 469/475 items from pretrained weights\n","\u001b[1;38;5;214mCOMET WARNING:\u001b[0m To get all data logged automatically, import comet_ml before the following modules: torch.\n","\u001b[1;38;5;39mCOMET INFO:\u001b[0m Couldn't find a Git repository in '/content' nor in any paren
…
.5, cls=0.5, dfl=1.5, pose=12.0, kobj=1.0, label_smoothing=0.0, nbs=64, hsv_h=0.015, hsv_s=0.7, hsv_v=0.4, degrees=0.0, translate=0.1, scale=0.5, shear=0.0, perspective=0.0, flipud=0.0, fliplr=0.5, mosaic=1.0, mixup=0.0, copy_paste=0.0, cfg=None, v5loader=False, tracker=botsort.yaml, save_dir=/content/drive/MyDrive/NOVA_Deep/Processing/tiles_training/NOVA_YOLOv8_Full_YOLOx_b322\n","Overriding model.yaml nc=80 with nc=1\n","\n","                   from  n    params  module                                       arguments                     \n","  0                  -1  1      2320  ultralytics.nn.modules.conv.Conv             [3, 80, 3, 2]                 \n","  1                  -1  1    115520  ultralytics.nn.modules.conv.Conv             [80, 160, 3, 2]               \n","  2                  -1  3    436800  ultralytics.nn.modules.block.C2f             [160, 160, 3, True]           \n","  3                  -1  1    461440  ultralytics.nn.modules.conv.Conv             [160, 320, 3, 2]              \n","  4                  -1  6   3281920  ultralytics.nn.modules.block.C2f             [320, 320, 6, True]           \n","  5                  -1  1   1844480  ultralytics.nn.modules.conv.Conv             [320, 640, 3, 2]              \n","  6                  -1  6  13117440  ultralytics.nn.modules.block.C2f             [640, 640, 6, True]           \n","  7                  -1  1   3687680  ultralytics.nn.modules.conv.Conv             [640, 640, 3, 2]              \n","  8                  -1  3   6969600  ultralytics.nn.modules.block.C2f             [640, 640, 3, True]           \n","  9                  -1  1   1025920  ultralytics.nn.modules.block.SPPF            [640, 640, 5]                 \n"," 10                  -1  1         0  torch.nn.modules.upsampling.Upsample         [None, 2, 'nearest']          \n"," 11             [-1, 6]  1         0  ultralytics.nn.modules.conv.Concat           [1]                           \n"," 12                  -1  3   7379200  ultralytics.nn.modules.block.C2f             [1280, 640, 3]                \n"," 13                  -1  1         0  torch.nn.modules.upsampling.Upsample         [None, 2, 'nearest']          \n"," 14             [-1, 4]  1         0  ultralytics.nn.modules.conv.Concat           [1]                           \n"," 15                  -1  3   1948800  ultralytics.nn.modules.block.C2f             [960, 320, 3]                 \n"," 16                  -1  1    922240  ultralytics.nn.modules.conv.Conv             [320, 320, 3, 2]              \n"," 17            [-1, 12]  1         0  ultralytics.nn.modules.conv.Concat           [1]                           \n"," 18                  -1  3   7174400  ultralytics.nn.modules.block.C2f             [960, 640, 3]                 \n"," 19                  -1  1   3687680  ultralytics.nn.modules.conv.Conv             [640, 640, 3, 2]              \n"," 20             [-1, 9]  1         0  ultralytics.nn.modules.conv.Concat           [1]                           \n"," 21                  -1  3   7379200  ultralytics.nn.modules.block.C2f             [1280, 640, 3]                \n"," 22        [15, 18, 21]  1   8718931  ultralytics.nn.modules.head.Detect           [1, [320, 640, 640]]          \n","Model summary: 365 layers, 68153571 parameters, 68153555 gradients\n","\n","Transferred 589/595 items from pretrained weights\n","\u001b[1;38;5;214mCOMET WARNING:\u001b[0m To get all data logged automatically, import comet_ml before the following modules: torch.\n","\u001b[1;38;5;39mCOMET INFO:\u001b[0m Couldn't find a Git repository in '/content' nor in any paren
…
